Assets/policy_net.onnx (onnx, 107778 bytes, 11 tensors)

mlp_extractor.policy_net.0.weight f4 [64, 118]
0	0x3e43e6fb	0.19131081
1	0xbc678b48	-0.014132328
2	0x3ddd0538	0.10792011
3	0xbeafdd9a	-0.34348756
4	0x3e5301a0	0.20606089
5	0xbed7c2b3	-0.4214073
6	0x3e73f5a4	0.23824173
7	0xbd1f82a5	-0.03894295
8	0x3e0613c0	0.13093472
9	0xbe2b63ad	-0.16737242
10	0xbe1ebf79	-0.15502729
11	0x3ba08b3f	0.004899412
12	0xbca48c34	-0.020086385
13	0xbbece35b	-0.0072292513
14	0x3ec25587	0.37955877
15	0xbe0daacf	-0.1383469
16	0xbdc305cc	-0.0952259
17	0x3dc07437	0.09397166
18	0x3e9117d7	0.283385
19	0x3e99e9db	0.3006123
20	0x3d355f11	0.044280116
21	0xbcf2e6d5	-0.029651085
22	0xbcb22e03	-0.021750456
23	0x3c2ffea0	0.01074186
24	0xbcdf4f00	-0.02725935
25	0xbe895676	-0.26823777
26	0x3c6d095b	0.014467563
27	0xbdd04b08	-0.10170561
28	0x3e3a6305	0.18201835
29	0xbe29b63a	-0.1657342
30	0x3e1f46f7	0.15554415
31	0x3dd5ab6f	0.10433089
32	0x3e2326af	0.15932725
33	0x3e11da06	0.14243326
34	0x3d85ad69	0.06527216
35	0xbe2ba3a7	-0.16761647
36	0x3d055bdd	0.03255831
37	0xbdd7b1a2	-0.10531928
38	0x3e338c55	0.17534001
39	0x3e601b81	0.21885492
40	0x3e0b137e	0.13581654
41	0xbe2b45e8	-0.16725886
42	0xbeb0c801	-0.3452759
43	0x3ed15839	0.4088762
44	0xbe0e34c7	-0.1388732
45	0x3e8c1aeb	0.27364287
46	0x3de0ed92	0.10982813
47	0xbe73b3f3	-0.23799114
48	0x3e50c9e9	0.20389523
49	0xbe24412f	-0.1604049
50	0x3d36d668	0.044638067
51	0xbc260b3c	-0.010134514
52	0x3e3d9647	0.18514358
53	0xbf4f8a21	-0.81070143
54	0x3e78527f	0.2425022
55	0x3e892828	0.2678845
56	0xbda38752	-0.07984795
57	0xbd0823be	-0.03323721
58	0xbf13769e	-0.5760287
59	0x3dbafbac	0.09130034
60	0x3dc406a4	0.09571579
61	0xbe82f0e3	-0.25574407
62	0xbc6239db	-0.013807739
63	0xbdbbc00c	-0.091674894
64	0x3cd0b8ea	0.025478799
65	0x3c955061	0.018226804
66	0x3f2362d2	0.6382266
67	0xbefdc666	-0.49565428
68	0x3e4946e0	0.19655943
69	0x3d9a580e	0.07536326
70	0x3c7219aa	0.014776627
71	0x3ec79820	0.3898325
72	0x3d753ddd	0.05987345
73	0x3df0a72b	0.11750635
74	0xbe94c19a	-0.29053956
75	0x3e812785	0.25225464
76	0xbf66beda	-0.90134966
77	0x3e4b62f9	0.19861974
78	0xbe6ac66d	-0.22927256
79	0x3df6bdaf	0.12047898
80	0xbeb4128e	-0.35170406
81	0xbdea2d21	-0.11434389
82	0x3eb3bb4b	0.3510383
83	0x3e10f075	0.14154227
84	0xbe48d795	-0.19613488
85	0x3e4d7c40	0.20066929
86	0x3da276aa	0.079327896
87	0xbe472f6e	-0.19451687
88	0xbddc5d31	-0.10759962
89	0x3d1e7a27	0.038690712
90	0x3e82a382	0.25515372
91	0xbccdc238	-0.025117025
92	0xbd8f521c	-0.06998083
93	0xbd02a095	-0.031891424
94	0x3d4e6e26	0.050398014
95	0x3e387752	0.18014267
96	0x3d93ff00	0.07226372
97	0x3cd6dc18	0.026227996
98	0x3c47b12b	0.012188236
99	0x3d547cd9	0.051876877
100	0x3de4caa0	0.1117146
101	0xbe90dd57	-0.2829387
102	0x3d97a84a	0.074051455
103	0xbd4334be	-0.04765772
104	0xbd805d97	-0.06267851
105	0xbec15349	-0.37758854
106	0xbe0a7537	-0.13521276
107	0x3df92cfe	0.12166785
108	0x3cd7b38f	0.026330737
109	0xbeafd0a3	-0.34338865
110	0xbcba4cb6	-0.022741657
111	0xbda1cb2c	-0.0790008
112	0xbee3eee7	-0.44518206
113	0x3a8ce8dd	0.0010750551
114	0x3de771a3	0.11300971
115	0x3e2da3e6	0.16957054
116	0xbe869e28	-0.2629254
117	0xbb0a0717	-0.0021061355
118	0x3dd3148a	0.10306652
119	0xbc9a84f8	-0.018862233
120	0x3e242db3	0.16033058
121	0x3e29af21	0.16570713
122	0xbd8c4a4a	-0.06850107
123	0x3de32a2b	0.11092027
124	0x3eacf142	0.33777815
125	0x3de3e55b	0.111277305
126	0x3c9b154a	0.01893105
127	0xbc57b104	-0.013164762
128	0x3d634b4c	0.05549173
129	0xbdd10312	-0.10205664
130	0x3d95e66c	0.0731934
131	0x3ec5f48b	0.38663134
132	0xbe535242	-0.20636848
133	0x3d828b11	0.06374181
134	0x3e0c56bd	0.13704963
135	0x3d1654dc	0.036702022
136	0xbede7873	-0.4345127
137	0xbe513c4a	-0.20433155
138	0x3e2628b1	0.1622646
139	0xbe6c1fe8	-0.23059046
140	0x3e58dab3	0.21177177
141	0xbd2798e9	-0.04091731
142	0xbe1183da	-0.14210454
143	0x3df7921e	0.120884165
144	0xbdba22d4	-0.09088674
145	0xbe4841e9	-0.19556393
146	0xbdba08f8	-0.09083742
147	0xbeb006c3	-0.3438016
148	0xbe0478ce	-0.12936708
149	0x3d322b74	0.04349847
150	0xbdf2fca4	-0.118645936
151	0xbe939afd	-0.28829184
152	0x3ebe4efa	0.3716963
153	0xbcccc784	-0.02499748
154	0x3e0673af	0.13130067
155	0xbdb06c93	-0.08614459
156	0x3e12d940	0.14340687
157	0x3e9e65e0	0.309371
158	0x3f3ff379	0.74980885
159	0xbeec4e0c	-0.46153295
160	0x3f0f76df	0.5604076
161	0x3dbd4ae9	0.092428036
162	0x3db6b9d2	0.08922161
163	0x3f146aad	0.57975274
164	0x3d92453e	0.07142113
165	0x3dd245ce	0.102672204
166	0x3f16959a	0.58822024
167	0xbe8185dd	-0.25297442
168	0xbd888a95	-0.066670574
169	0x3e2d7dff	0.16942595
170	0xbbf161b9	-0.007366386
171	0xbe1e91d4	-0.15485317
172	0xbe4da5b8	-0.20082748
173	0x3dc93019	0.09823627
174	0xbd1d2cb1	-0.0383727
175	0xbd23ce2b	-0.03999154
176	0xbe86d9e7	-0.2633812
177	0x3ea8c7da	0.32964975
178	0xbed1a02b	-0.4094251
179	0xbe9c147f	-0.30484387
180	0xbd42bebd	-0.047545183
181	0xbe072a5a	-0.1319975
182	0xbee304a2	-0.44339472
183	0x3d052d7c	0.03251408
184	0x3f03519e	0.5129641
185	0x3d4c2db9	0.049848292
186	0xbe9b8cfb	-0.30380997
187	0xbc9fa413	-0.019487416
188	0x3e9cd524	0.30631363
189	0xbe10c817	-0.14138828
190	0x3df11970	0.1177243
191	0x3eb6452f	0.35599658
192	0x3aee3c46	0.0018175922
193	0xbbfb4f8b	-0.0076693944
194	0xbe594492	-0.21217564
195	0x3efeeece	0.4979157
196	0xbec290df	-0.38001153
197	0xbd88698d	-0.06660757
198	0xbedf1b1f	-0.4357538
199	0xbee4d2d0	-0.44692087
200	0x3f05649f	0.5210666
201	0x3e88a435	0.2668778
202	0xbe92476c	-0.28570116
203	0x3c2ff0a6	0.010738527
204	0xbe984155	-0.29737344
205	0x3da2a030	0.079407096
206	0xbe310e60	-0.1729064
207	0x3ddea545	0.108713664
208	0xbdaf54ee	-0.08561121
209	0x3e23a6f9	0.15981664
210	0xbdfd840f	-0.12378704
211	0x3d98968e	0.07450591
212	0xbf014a04	-0.50503564
213	0x3e2f4090	0.17114472
214	0x3e96a80e	0.2942509
215	0x3db43058	0.08798283
216	0x3e2d9489	0.16951193
217	0xbd1e3cb9	-0.03863213
218	0xbe8e05b1	-0.27738717
219	0xbc0db0dd	-0.0086481245
220	0xbeb49ea0	-0.3527727
221	0x3e496d67	0.1967064
222	0x3d17ee08	0.03709224
223	0xbde41bf7	-0.11138146
224	0xbe8a22e9	-0.2697976
225	0x3dd9fc2e	0.106438026
226	0x3ebe54c7	0.37174055
227	0x3c5f992c	0.013647359
228	0x3dd1c546	0.10242705
229	0x3d92a3b9	0.07160134
230	0xbd65978a	-0.056052722
231	0xbdad0857	-0.08448856
232	0x3e8beef3	0.2733074
233	0xbed5bc28	-0.41745114
234	0x3ce6958f	0.028147487
235	0xbd8e12b7	-0.06937163
236	0xbe064b38	-0.13114631
237	0x3e2bcb06	0.16776666
238	0x3ef01069	0.4688752
239	0x3e430bb9	0.1904744
240	0xbdff8d32	-0.12478103
241	0xbe8ae27f	-0.27125928
242	0xbe83d277	-0.2574651
243	0x3ea97410	0.3309636
244	0xbe03206e	-0.1280534
245	0x3e098e9e	0.1343331
246	0x3d07e0b1	0.033173267
247	0xbe126883	-0.1429768
248	0xbd7f0db5	-0.06226893
249	0xbe37d7ff	-0.1795349
250	0xbca4f37e	-0.020135637
251	0xbda73692	-0.08164705
252	0x3d1e31cf	0.03862172
253	0x3e24b94e	0.16086313
254	0x3e5772c1	0.21039869
255	0x3df56fc9	0.11984212

mlp_extractor.policy_net.0.bias f4 [64]
0	0xbb5db676	-0.003383068
1	0xbc51e183	-0.012810114
2	0x3d56451b	0.052311998
3	0x3ba14cdf	0.004922494
4	0xbc8b2b77	-0.0169885
5	0xbc5e268a	-0.013558993
6	0xbd29bceb	-0.04143993
7	0xbd5b8e15	-0.053602297
8	0x3d68c4b1	0.056828205
9	0xbc3d2dd7	-0.011546574
10	0xbdb2c5b6	-0.087291166
11	0x3badd4db	0.0053049154
12	0x3d94cd6e	0.07265745
13	0xbc07f0db	-0.0082971705
14	0xbdcee9e4	-0.10103205
15	0xbce3b77c	-0.027797453
16	0x3d013f7f	0.031554695
17	0x3d8f55cb	0.069987856
18	0x3c2c750c	0.010525953
19	0xbcb35688	-0.021891847
20	0x3d0974c0	0.033558607
21	0xbd7e136e	-0.06203025
22	0xbb8ad87b	-0.0042372323
23	0x3c254c3c	0.0100889765
24	0x3d80f29b	0.06296273
25	0xbcdd2280	-0.02699399
26	0x3d002869	0.031288538
27	0xbd7feb62	-0.062480338
28	0xbda3eaf8	-0.08003801
29	0x3c77492e	0.015093131
30	0xbc043bbf	-0.008070885
31	0xbc7c7c41	-0.015410484
32	0x3cb738c1	0.02236593
33	0xbcb8f050	-0.022575527
34	0x3a18b8ef	0.0005825897
35	0xbd2fc0fe	-0.04290866
36	0x3bfe7962	0.007765935
37	0x3d590389	0.052981887
38	0x3d16794a	0.036736764
39	0xba34c6fe	-0.0006896107
40	0xbd11d54d	-0.03560381
41	0x3d8e3703	0.069440864
42	0x3c8b5e1c	0.017012648
43	0x3d090c9b	0.033459287
44	0xbd57ac1a	-0.052654363
45	0xbc54c48a	-0.012986312
46	0x3ccccfec	0.025001489
47	0x3b89ccef	0.004205338
48	0xbd04d7ab	-0.03243224
49	0xbd0ebb20	-0.034846425
50	0x3d3f647e	0.046726696
51	0xbd1a4b15	-0.03766926
52	0x3bf94214	0.007606754
53	0xbc5294a3	-0.012852821
54	0xbd400b0c	-0.046885535
55	0x3d385ba0	0.045009255
56	0xbd6f4860	-0.05841863
57	0xbc03ee27	-0.008052385
58	0xbdbfae04	-0.09359363
59	0xbd08cac1	-0.033396486
60	0x3cbe61fd	0.023240084
61	0x3b8f8435	0.004379774
62	0xbcf21b4f	-0.029554037
63	0xbb262ef1	-0.002535757

mlp_extractor.policy_net.2.weight f4 [64, 64]
0	0x3f0f5c19	0.55999905
1	0x3f202d0d	0.6256874
2	0xbe7289c1	-0.23685361
3	0x3db12fc5	0.086516894
4	0xbdede159	-0.11615247
5	0x3e72f8ab	0.23727672
6	0x3e90ce2a	0.2828229
7	0xbe9faeb3	-0.31187972
8	0xbd792c95	-0.060833532
9	0x3e2f2a8e	0.17106077
10	0x3f502899	0.8131195
11	0x3e21cf4e	0.15801737
12	0x3ea66bca	0.32504112
13	0xbe367849	-0.17819323
14	0xbf01e628	-0.50741816
15	0x3e30a6d9	0.17251147
16	0xbdbc4ec9	-0.091947146
17	0x3e640af0	0.22269797
18	0xbe8de99a	-0.27717286
19	0xbe0a4d19	-0.13505973
20	0xbe0f333e	-0.13984391
21	0x3e67d3d9	0.22639407
22	0x3e849643	0.2589589
23	0x3ca45937	0.020062072
24	0xbdfb74ca	-0.12278135
25	0x3f001409	0.5003057
26	0x3e6fa544	0.23402888
27	0x3cad8315	0.021180669
28	0x3e4922ec	0.19642228
29	0xbe971d48	-0.29514527
30	0xbefc8bc4	-0.49325383
31	0x3dca19d0	0.098682046
32	0x3ed752bf	0.42055318
33	0xbcbdaa4c	-0.023152493
34	0xbf27d012	-0.65551865
35	0x3e7c9e70	0.24669814
36	0x3f233c01	0.63763434
37	0xbc927dbe	-0.017882224
38	0xbe9751cc	-0.29554594
39	0x3ea3fa4e	0.32026905
40	0x3d33b02d	0.043869186
41	0xbeb173b1	-0.34658578
42	0xbe5d8507	-0.21632777
43	0xbf1a94d8	-0.6038337
44	0xbf072998	-0.5279784
45	0xbd93cc78	-0.07216734
46	0xbdd22c70	-0.10262382
47	0x3f138654	0.57626843
48	0xbddbda81	-0.10735036
49	0x3e016773	0.12637119
50	0x3e01660d	0.12636586
51	0xbc7fdc27	-0.015616453
52	0x3e0289af	0.12747835
53	0xbeefa6eb	-0.46807036
54	0x3e59a7cb	0.21255414
55	0xbf4f349d	-0.80939656
56	0x3d89b582	0.06724073
57	0x3e4dcd6a	0.2009789
58	0xbd8298c6	-0.063767955
59	0x3e99b65f	0.3002195
60	0xbeb2322a	-0.34803897
61	0xbd060dbd	-0.032727946
62	0xbe88fa20	-0.2675333
63	0xbd13cf4e	-0.036086373
64	0xbe269afe	-0.16270062
65	0x3ec367e3	0.38165197
66	0xbc8d8a16	-0.017277759
67	0x3eed4123	0.46338758
68	0x3efd46ec	0.49468172
69	0xbe27c97c	-0.16385454
70	0x3be357fd	0.0069379793
71	0xbeb826e8	-0.35967183
72	0x3cd1861f	0.02557665
73	0xbd772af9	-0.060343716
74	0x3ef01511	0.46891072
75	0x3e3686e0	0.17824888
76	0x3e7a1812	0.24423245
77	0xbf17c10b	-0.59278935
78	0x3dd9832c	0.10620722
79	0x3ee4b682	0.44670492
80	0x3e955e36	0.2917344
81	0xbebbf841	-0.3671284
82	0xbebade4a	-0.36497718
83	0xbf00dac5	-0.50333816
84	0xbd0550cb	-0.032547753
85	0x3c7d3df9	0.01545667
86	0xbd9c1767	-0.07621651
87	0xbdb12241	-0.086491115
88	0x3f4c9116	0.79908884
89	0x3e551806	0.20809945
90	0xbe6c7123	-0.23090033
91	0x3e2bc312	0.16773632
92	0x3e60cff8	0.21954334
93	0x3dd5997a	0.10429664
94	0x3b808d62	0.003923104
95	0x3c38784f	0.011259153
96	0xbd9fdd0a	-0.07805832
97	0x3ed63a37	0.4184129
98	0xbd87a69e	-0.066235766
99	0xbf2da40f	-0.6782846
100	0x3e15d616	0.14632449
101	0xbe54659e	-0.20741889
102	0x3d5f65d0	0.054540455
103	0xbccdb42b	-0.025110325
104	0x3ca8c53e	0.020601865
105	0x3e3e58af	0.18588518
106	0x3e691e3b	0.22765438
107	0xbf28bada	-0.6591011
108	0xbf0fdc19	-0.5619522
109	0x3e904f42	0.2818547
110	0x3f3fc2e1	0.74906737
111	0xbea3a914	-0.31964934
112	0x3eb9c324	0.36281693
113	0xbe772fdc	-0.2413935
114	0x3e757e3d	0.23973937
115	0xbebd495b	-0.36970028
116	0x3e9b87f3	0.3037716
117	0xbe92c6c3	-0.28667268
118	0x3e365862	0.17807153
119	0x3f33f154	0.7029011
120	0xbe834885	-0.25641266
121	0xbd9ab983	-0.07554915
122	0x3e91fd3a	0.2851351
123	0x3e73fc4e	0.23826715
124	0x3d02b397	0.03190955
125	0xbe08e0e6	-0.13367042
126	0xbf6f436c	-0.9346225
127	0x3f0acba8	0.54217005
128	0xbecc3a14	-0.3988806
129	0xbdef272f	-0.116773956
130	0x3e0c71fe	0.1371536
131	0xbe81f8c6	-0.25385112
132	0xbecbe944	-0.39826405
133	0xbd1970e4	-0.037461177
134	0x3f677607	0.9041447
135	0xbe8e4f43	-0.27794847
136	0xbf5974cb	-0.84943837
137	0xbe0b3721	-0.13595249
138	0xbc3d33bd	-0.01154798
139	0x3f3633f1	0.71173006
140	0xbf385600	-0.72006226
141	0x3d1fa9b3	0.038980197
142	0x3e26eff8	0.16302478
143	0x3f0ef3da	0.5584084
144	0xbeea2deb	-0.45738158
145	0x3daecd47	0.08535247
146	0x3e7db49c	0.24775928
147	0x3eceb884	0.4037515
148	0xbde4a4b5	-0.11164228
149	0x3b2ebe54	0.0026663737
150	0xbdc00437	-0.09375804
151	0xbefe415f	-0.4965925
152	0xbe8afac9	-0.2714446
153	0x3ea69dcd	0.32542267
154	0x3b9a250d	0.004704124
155	0xbe81eec4	-0.25377476
156	0xbc81f0f2	-0.015861962
157	0xbe6a2ad8	-0.22867906
158	0xbe3b905c	-0.18316787
159	0xbd2f1c77	-0.042751756
160	0x3f139e74	0.57663655
161	0xbe98a2fd	-0.2981185
162	0x3caa11d3	0.020760452
163	0x3ec7643a	0.38943654
164	0x3e5cbcdd	0.2155642
165	0x3f42d475	0.76105434
166	0x3e019298	0.12653577
167	0xbe1a9c91	-0.15098788
168	0x3ebcb9ce	0.36860508
169	0x3ecedb1e	0.40401548
170	0xbdd0c9da	-0.1019475
171	0x3e9f799d	0.3114747
172	0x3eaf441b	0.34231648
173	0xbeb1bc3a	-0.34713918
174	0x3d3366f0	0.04379934
175	0x3b09023b	0.002090587
176	0xbd6b4532	-0.057439037
177	0xbe2e6e99	-0.17034377
178	0xbe058a45	-0.13041027
179	0xbf149936	-0.5804628
180	0x3cb97e28	0.022643164
181	0xbefd37dc	-0.4945668
182	0x3f3a4037	0.72754234
183	0x3e6954a8	0.227862
184	0xbc45348c	-0.012036454
185	0xbe99e52e	-0.30057663
186	0x3e91dd44	0.28489125
187	0x3e839d5f	0.25706002
188	0xbf0dd953	-0.55409735
189	0xbc81b5aa	-0.015833694
190	0x3e7e7aa6	0.24851474
191	0xbdb84c86	-0.08998971
192	0x3d0b78d6	0.034050785
193	0xbee8f016	-0.4549567
194	0x3f0b1ed6	0.54343927
195	0x3d7e3a72	0.062067457
196	0xbec5d905	-0.38642135
197	0x3bfba60a	0.0076797055
198	0x3ed1bf6b	0.40966353
199	0x3e2d1dd5	0.16905911
200	0xbe13c417	-0.14430271
201	0xbe8effe4	-0.27929604
202	0xbeffb893	-0.49945506
203	0x3dce6765	0.10078315
204	0x3e00e4ca	0.12587276
205	0x3e90b140	0.2826023
206	0xbe1f6834	-0.15567094
207	0x3f281a33	0.65664977
208	0x3da2c0ed	0.07946954
209	0xbe59dc1d	-0.21275373
210	0x3ef23885	0.47308746
211	0xbed80c46	-0.42196864
212	0x3ed357a9	0.41277817
213	0x3e8cf76d	0.2753252
214	0xbf01ee73	-0.5075447
215	0x3f2ab18f	0.6667718
216	0xbd3b0a3b	-0.045664053
217	0x3ebc1f72	0.3674274
218	0xbdbdc859	-0.09266729
219	0x3dff4545	0.12464384
220	0xbedefc68	-0.43551946
221	0xbe1752b8	-0.14777648
222	0xbe60337a	-0.21894637
223	0x3e1c08f3	0.15237789
224	0x3f02ebda	0.5114113
225	0x3d558087	0.052124526
226	0xbee44c2e	-0.4458937
227	0x3eb4b098	0.3529098
228	0xbe61565f	-0.22005604
229	0x3f3eb3f7	0.74493355
230	0xbec87ed9	-0.39159277
231	0x3ef13347	0.47109434
232	0xbcb7e5a4	-0.022448368
233	0x3e0addf0	0.13561225
234	0xbee72e6f	-0.45152614
235	0x3f2b9897	0.6702971
236	0x3e1faa12	0.1559222
237	0xbee3d90e	-0.44501537
238	0x3d91fd81	0.0712843
239	0xbef7617f	-0.4831657
240	0xbf0e7c52	-0.5565845
241	0xbec71c9c	-0.38889015
242	0x3ea888b7	0.32916805
243	0xbd913f9e	-0.07092212
244	0x3dfdfc3d	0.12401626
245	0x3ca141d0	0.019684702
246	0x3cbe8658	0.02325742
247	0x3e20c5df	0.15700482
248	0xbee60971	-0.44929078
249	0x3eb6cb48	0.35701966
250	0xbd67a677	-0.056555238
251	0x3e04cb30	0.12968135
252	0x3e77844a	0.24171558
253	0x3e5db29f	0.2165017
254	0xbe424c66	-0.18974456
255	0x3e00db08	0.12583554

mlp_extractor.policy_net.2.bias f4 [64]
0	0xbe5b3efc	-0.21410745
1	0xbe2e696c	-0.17032403
2	0xbe23f4db	-0.16011374
3	0x3e20b70c	0.15694827
4	0x3dd3b69a	0.10337563
5	0xbe384bd0	-0.1799767
6	0xbdf37b20	-0.118887186
7	0x3db1dffe	0.08685301
8	0xbdd3757e	-0.10325144
9	0xbd6bb117	-0.057541933
10	0xbd13b2c7	-0.036059167
11	0xbe2ecd59	-0.17070521
12	0xbce384ab	-0.027773222
13	0x3e2389aa	0.15970483
14	0xbd8b2b08	-0.06795317
15	0x3d09ec8f	0.033672865
16	0x3e9774fc	0.2958144
17	0xbe6f9fc5	-0.23400791
18	0x3de93c93	0.11388507
19	0xbd98576e	-0.07438551
20	0xbd9d3173	-0.07675447
21	0xbba3413e	-0.0049821427
22	0x3d493cc1	0.049130205
23	0x3e50ab59	0.20377864
24	0xbdcdc36b	-0.10047039
25	0xbcb1873d	-0.021670932
26	0x3c4b1557	0.0123952245
27	0xbdb5cb3b	-0.08876654
28	0x3da531ac	0.08066115
29	0xbe893762	-0.26800066
30	0xbd488378	-0.048953503
31	0x3c3ebb14	0.011641283
32	0xbe58e064	-0.21179348
33	0xbdc088c8	-0.09401089
34	0x3c0e528f	0.008686676
35	0xbc8fd2fc	-0.01755666
36	0x3d9151d5	0.07095686
37	0x3bf2ee3a	0.0074136527
38	0x3da7c16c	0.08191189
39	0xbdef2030	-0.11676061
40	0xbe0feba9	-0.14054741
41	0xbe4b6738	-0.19863594
42	0xbd19dfea	-0.037567057
43	0xbe427edf	-0.1899371
44	0xbcdafd7d	-0.0267322
45	0x3d7215b8	0.059102744
46	0x3d581b5f	0.052760478
47	0x3dc49317	0.09598368
48	0xbe882a13	-0.265946
49	0xbca77dfe	-0.02044582
50	0x3ce94f0d	0.028480077
51	0xbe20f2ce	-0.15717623
52	0x3e2b5bd7	0.16734253
53	0xbdb7463f	-0.08948945
54	0xbba72e35	-0.005101944
55	0x3c8b82b5	0.0170301
56	0xbd03bbc6	-0.032161497
57	0x3d0bf212	0.034166403
58	0xbe471665	-0.19442137
59	0x3d8ba96c	0.06819424
60	0xbe61d051	-0.22052123
61	0x3d01b83b	0.031669836
62	0xbdb2b9b5	-0.08726827
63	0x3c814848	0.015781537

mlp_extractor.value_net.0.weight f4 [64, 118]
0	0x3cec6e98	0.028861329
1	0x3e4f51bb	0.20246021
2	0xbed7480e	-0.4204716
3	0x3eaa7096	0.3328902
4	0xbd6b6cb0	-0.0574767
5	0x3e2f9fa6	0.17150745
6	0x3d802e71	0.06258858
7	0xbd6e7726	-0.058219098
8	0xbe695598	-0.22786558
9	0x3eabf7d7	0.33587524
10	0x3e171be4	0.14756733
11	0xbe2ecc95	-0.1707023
12	0x3dc987d8	0.09840363
13	0x3df5e2c4	0.12006143
14	0xbef2ccb1	-0.47421792
15	0xbe0b5fb8	-0.13610733
16	0x3e40cbc9	0.18827738
17	0xbcaf5f07	-0.021407617
18	0x3d946dc8	0.072475016
19	0xbd9054c2	-0.07047416
20	0xbec48bcf	-0.38387915
21	0x3cfd3f0c	0.030913852
22	0x3def1037	0.116730146
23	0xbdddc4af	-0.1082853
24	0x3e67ffc7	0.22656165
25	0xbdc56e77	-0.0964021
26	0xbee51cb1	-0.44748452
27	0xbce48650	-0.027896076
28	0x3e5fceb6	0.21856198
29	0xbe5d24c2	-0.21596053
30	0x3bd46137	0.0064813155
31	0x3e06ee29	0.13176788
32	0xbeaf3fa5	-0.34228244
33	0xbe2c82f0	-0.16846824
34	0xbdc07871	-0.093979724
35	0x3e7c340e	0.24629232
36	0xbdd51a95	-0.10405461
37	0xbd779af3	-0.060450505
38	0x3d0c6ef0	0.034285486
39	0xbe3ed5a7	-0.1863619
40	0xbe831830	-0.2560439
41	0x3c120d0d	0.008914244
42	0xbeffa735	-0.49932256
43	0xbe67339f	-0.22578286
44	0xbf2d9c60	-0.67816734
45	0xbce839d6	-0.02834789
46	0x3dd1ad8c	0.102381796
47	0xbd833e7a	-0.06408401
48	0xbe3e9e0d	-0.18614979
49	0xbe0bc655	-0.13649876
50	0xbe2611af	-0.16217683
51	0x3edd6ad0	0.43245554
52	0xbd75fe24	-0.06005682
53	0x3e39eb09	0.18156065
54	0xbe4bd5c0	-0.19905758
55	0xbe383015	-0.17987092
56	0xbcbc6576	-0.0229976
57	0x3d8d9f52	0.069151536
58	0xbf6b115a	-0.9182335
59	0xbef0503e	-0.4693622
60	0x3e8508f7	0.25983402
61	0xbc8d856a	-0.01727553
62	0xbfa132e7	-1.2593659
63	0x3f522375	0.82085353
64	0x3ebc7b07	0.36812612
65	0xbce527cb	-0.027973076
66	0xbe164420	-0.14674425
67	0xbdd64481	-0.10462285
68	0xbee03577	-0.4379079
69	0xbe0185ff	-0.12648772
70	0x3e4bc4cd	0.19899292
71	0x3e5e8e55	0.21733983
72	0x3dc50f88	0.09622103
73	0xba7621d6	-0.0009389197
74	0xbe383dd9	-0.17992343
75	0xbe1c77d1	-0.15280081
76	0xbdf1919a	-0.117953494
77	0xbd5f42e0	-0.054507136
78	0x3cabdf9e	0.020980652
79	0xbd9b7182	-0.07590009
80	0xbdd3beee	-0.10339151
81	0xbbd43a73	-0.0064766943
82	0x3d0fe583	0.03513099
83	0xbd77d5a5	-0.06050648
84	0x3e024fd6	0.12725767
85	0x3d25fdc2	0.040525205
86	0x3db06a31	0.086140044
87	0x3e248c12	0.16069058
88	0x3dad6e61	0.08468319
89	0x3e37954f	0.1792805
90	0x3c6c25b0	0.014413282
91	0xbe8b9966	-0.2726547
92	0x3e013de8	0.12621272
93	0x3e53494a	0.20633426
94	0x3cac376b	0.02102252
95	0x3c482a59	0.012217128
96	0x3df2f4b3	0.11863079
97	0x3e4f76ae	0.20260116
98	0xbdf645db	-0.120250426
99	0x3e596f7a	0.21233931
100	0xbdad1d5a	-0.08452864
101	0x3dc34ac7	0.09535747
102	0x3b82c103	0.003990294
103	0xbdd2f044	-0.10299733
104	0xbca9cf97	-0.02072887
105	0x3e0357af	0.12826417
106	0xbd681ba9	-0.056667004
107	0x3e1ae03d	0.15124603
108	0xbd147953	-0.036248516
109	0xbe0ed11f	-0.13946961
110	0x3e570491	0.20997836
111	0x3e3198fd	0.17343517
112	0x3e593ca2	0.21214536
113	0x3e07530f	0.13215278
114	0x3de212fc	0.11038777
115	0xbe0f7270	-0.14008498
116	0xbe291dd5	-0.16515286
117	0x3dd33ae9	0.103139706
118	0x3e00145a	0.12507764
119	0xbe96ac47	-0.29428312
120	0xbea45740	-0.32097816
121	0x3de66b6a	0.11250956
122	0xbe92403b	-0.2856463
123	0xbdfc3c8c	-0.12316236
124	0x3db494d4	0.08817449
125	0x3df66ddc	0.12032673
126	0xbebaade1	-0.36460784
127	0x3eb3a555	0.35087076
128	0xbe35dd39	-0.17760171
129	0xbd3f6dd8	-0.046735615
130	0x3e2fbf08	0.17162716
131	0xbe561686	-0.2090703
132	0xbe487299	-0.19574966
133	0x3da3ade6	0.07992153
134	0xba02e78f	-0.00049936114
135	0x3e81ca04	0.25349438
136	0x3e84bcdd	0.2592534
137	0xbd089f01	-0.033354763
138	0xbf018ca0	-0.506052
139	0x3c0da0c6	0.008644288
140	0x3d7d272c	0.061804935
141	0xbe89932f	-0.26870105
142	0x3ddd3035	0.108002104
143	0xbe1f3f6c	-0.15551537
144	0xbe8e22bc	-0.27760875
145	0xbe4e5295	-0.2014869
146	0x3e6d9716	0.23202166
147	0xbc909d6e	-0.017653193
148	0xbd61c4ea	-0.055119433
149	0xbdb73023	-0.08944728
150	0xbeb5d2b0	-0.35512304
151	0x3d740e45	0.05958392
152	0x3d4ce5cc	0.05002384
153	0xbc9b98a8	-0.01899369
154	0x3d4cddb0	0.050016105
155	0x3dfe2078	0.12408537
156	0x3de2251e	0.11042236
157	0xbd1979a3	-0.037469517
158	0x3d6167f7	0.05503079
159	0x3e5be537	0.21474157
160	0xbdab0b25	-0.08351735
161	0xbe20eaeb	-0.15714614
162	0xbe07fb60	-0.13279486
163	0xbd12f79b	-0.035880666
164	0xbe1dc6e7	-0.15407906
165	0xbe1550ae	-0.14581558
166	0xbd81d3a9	-0.06339199
167	0x3e854db4	0.26035845
168	0x3c57508b	0.0131417615
169	0xbc89f76e	-0.016841616
170	0xbee6b4ff	-0.45059964
171	0xbe5fa737	-0.21841131
172	0x3e502f23	0.20330481
173	0x3dc723ac	0.09723601
174	0xbc17c833	-0.00926404
175	0xbe1948e5	-0.14969213
176	0xbd9e1201	-0.07718278
177	0x3c436116	0.011925003
178	0x3d587dca	0.052854337
179	0xbe4be933	-0.19913177
180	0x3e7dfb4f	0.24802898
181	0xbb8ce9a3	-0.0043003126
182	0x3e14526c	0.14484566
183	0x3dd27950	0.10277045
184	0xbdaabb1c	-0.083364695
185	0xbe34589f	-0.17611931
186	0xbd1310a3	-0.035904538
187	0x3dddef06	0.10836606
188	0x3d52936c	0.051410124
189	0x3f772fb3	0.9655716
190	0xbe76ed9b	-0.24114077
191	0xbe403964	-0.18771893
192	0x3eb96dad	0.36216488
193	0xbf0ee012	-0.55810654
194	0x3e8f7252	0.28016907
195	0x3e740363	0.23829417
196	0x3d77cc67	0.060497668
197	0x3db038a0	0.0860455
198	0x3e8e1218	0.2774818
199	0x3ea25123	0.31702527
200	0x3cdba6e4	0.026812978
201	0xbe88b241	-0.26698497
202	0xbdd56deb	-0.10421356
203	0x3e3d163b	0.18465512
204	0x3e0faa16	0.14029726
205	0xbdb9b628	-0.09067947
206	0x3dced3cc	0.10098991
207	0xbe2eb2ca	-0.1706039
208	0xbe066124	-0.13122994
209	0xbdf0db4b	-0.11760577
210	0x3cecc0ed	0.028900588
211	0x3edf3543	0.43595323
212	0x3d57eed1	0.052717987
213	0x3d087324	0.03331293
214	0xbdf84841	-0.12123156
215	0x3cfa50fb	0.030556193
216	0x3d1c9782	0.038230427
217	0x3e6c1c5c	0.23057693
218	0x3e5ed972	0.21762636
219	0xbd68ffeb	-0.056884687
220	0xbd9c3c12	-0.07628645
221	0xbeb3e628	-0.35136533
222	0xbe9294eb	-0.2862924
223	0x3efc2632	0.4924789
224	0xbc1f06e4	-0.009706233
225	0xbe2c8d50	-0.16850781
226	0x3e228166	0.15869674
227	0x3dd46e85	0.103726424
228	0x3cd93e4a	0.02651896
229	0x3e62f6bd	0.22164436
230	0x3c655990	0.013998404
231	0xbc06427d	-0.008194563
232	0x3e929dda	0.28636056
233	0xbe97c41f	-0.29641816
234	0xbd3b525a	-0.045732833
235	0x3eb9ae96	0.3626601
236	0x3e5ecb6f	0.21757291
237	0x3dc4bc0e	0.09606181
238	0x3e91d65b	0.28483853
239	0x3d3763e5	0.044773
240	0x3de0f90a	0.109850004
241	0xbe1020b1	-0.14074971
242	0xbe4b48b8	-0.19851959
243	0xbe2427f4	-0.16030866
244	0xbe600989	-0.21878637
245	0xbcf9db66	-0.030500125
246	0x3e742c6e	0.23845074
247	0xbdab55e8	-0.08365995
248	0x3c1a9fb9	0.009437495
249	0x3dc9181d	0.09819052
250	0xbda5b5b7	-0.080913
251	0xbc90e22d	-0.017685974
252	0xbe48562a	-0.19564119
253	0x3e234bba	0.15946856
254	0x3e996f40	0.2996769
255	0xbe230f08	-0.15923703

mlp_extractor.value_net.0.bias f4 [64]
0	0xbd971909	-0.07377822
1	0xbd62fe3d	-0.05541824
2	0x3de37341	0.11105967
3	0x3dc46952	0.09590401
4	0x3dcbf4c4	0.09958795
5	0xbd2ecf5c	-0.042678222
6	0xbe0781b3	-0.1323307
7	0xbe1757d6	-0.147796
8	0x3c4fb951	0.01267846
9	0x3df46a55	0.11934344
10	0xbd8413ef	-0.064491145
11	0xbda9bf21	-0.08288408
12	0xbd18e713	-0.037329745
13	0xbc10a459	-0.008828246
14	0x3d3a8934	0.045541003
15	0x3d966792	0.07343973
16	0x3cd780e2	0.026306573
17	0xbd7e19fd	-0.062036503
18	0xbcc18eb7	-0.023627622
19	0xbcc2f54e	-0.023798611
20	0xbdd36557	-0.103220634
21	0x3dbd8083	0.09253027
22	0xbe0a1130	-0.13483119
23	0x3dac0ea0	0.08401227
24	0x3e2233ba	0.15840045
25	0xbd3626d5	-0.044470627
26	0x3d581cf2	0.05276198
27	0x3dd65ae0	0.10466552
28	0xbdcfaf49	-0.10140855
29	0x3da2ac97	0.07943075
30	0xbd1659e1	-0.03670681
31	0xbe09c495	-0.13453896
32	0xbcdb0f51	-0.026740702
33	0xbda84616	-0.08216493
34	0xbd6a0d6c	-0.057141706
35	0xbc10fde1	-0.008849592
36	0xbdaae7dd	-0.08345006
37	0xbd488901	-0.048958782
38	0xbcd1fead	-0.025634134
39	0x3d8d7cc3	0.06908562
40	0xbdb7189b	-0.0894024
41	0x3bbe4146	0.005806121
42	0xbc891640	-0.016734242
43	0x3dd4e25f	0.10394739
44	0x3d18fae3	0.03734864
45	0x3cd8059b	0.02636986
46	0xbe4b0e8d	-0.1982977
47	0x3dffbcad	0.12487159
48	0x3e09070d	0.13381596
49	0xbe2d3fea	-0.16918913
50	0xbd7ba472	-0.061436124
51	0xbc27140c	-0.010197651
52	0xbd2e91c9	-0.0426195
53	0x3da6e79f	0.08149647
54	0x3c21d731	0.009877966
55	0xbd7ff2f6	-0.062487565
56	0xbe2727c8	-0.16323769
57	0xbdc6fdbd	-0.097163655
58	0x3dfa8b52	0.122336045
59	0xbbfb6ca9	-0.0076728654
60	0xbdaf6813	-0.085647725
61	0xbe3c1d58	-0.18370569
62	0x3e795595	0.24349053
63	0xbe19a54f	-0.15004466

mlp_extractor.value_net.2.weight f4 [64, 64]
0	0x3e993fb3	0.2993141
1	0xbd44682f	-0.04795092
2	0xbeaf358e	-0.34220546
3	0xbed3b6be	-0.4135036
4	0x3f06c380	0.5264206
5	0x3cf2e928	0.029652193
6	0xbf036baa	-0.5133616
7	0x3c5824fd	0.013192412
8	0xbd07ff6e	-0.03320258
9	0xbec55da7	-0.38548014
10	0x3db6a010	0.08917248
11	0x3e50f4d0	0.20405889
12	0x3e52c147	0.20581542
13	0xbce0f10b	-0.027458688
14	0x3dc113cb	0.09427603
15	0xbdf18fd0	-0.11795008
16	0x3cfcc240	0.030854344
17	0x3ec7160b	0.38884005
18	0x3f2203b7	0.6328692
19	0x3deed825	0.1166232
20	0xbdcde900	-0.10054207
21	0xbe818ac3	-0.2530118
22	0xbe1e9277	-0.1548556
23	0x3e910c8e	0.2832989
24	0xbe205387	-0.15656863
25	0xbf9f980f	-1.246828
26	0xbf0645d3	-0.52450293
27	0x3ee64278	0.44972587
28	0xbeb78705	-0.358452
29	0x3ee582e4	0.44826424
30	0xbd58a266	-0.05288925
31	0xbea051ba	-0.31312352
32	0xbc15bde6	-0.009139514
33	0xbe87f6f9	-0.26555613
34	0xbecbde68	-0.3981812
35	0xbf22c8df	-0.63587755
36	0xbea7852e	-0.32718796
37	0x3dba6fde	0.09103368
38	0x3e95409a	0.2915085
39	0x3e67c7e8	0.22634852
40	0x3ddba1e1	0.10724235
41	0xbd892902	-0.06697275
42	0xbd7c0e31	-0.06153697
43	0xbe5a8ed6	-0.2134355
44	0xbc2a9de2	-0.010413619
45	0x3eabbf0d	0.33544198
46	0x3e065e81	0.13121988
47	0x3ebb430d	0.36574593
48	0x3f124f6f	0.57152456
49	0xbe09c39a	-0.13453522
50	0x3d37601d	0.044769395
51	0xbea4d376	-0.32192582
52	0xbddedcd9	-0.10881967
53	0x3e726a7f	0.23673438
54	0x3e661b2f	0.22471307
55	0x3d0c3df3	0.034238767
56	0xbe4c0de7	-0.19927178
57	0xbdfe3801	-0.12413026
58	0xbea99693	-0.33122692
59	0x3f0a43c6	0.54009664
60	0x3e513a80	0.20432472
61	0x3e6d5df6	0.23180375
62	0xbd665511	-0.05623347
63	0x3f446e23	0.76730555
64	0xbee9acb8	-0.45639586
65	0xbf016c1b	-0.5055558
66	0x3d9a2f02	0.07528497
67	0x3e44a40b	0.19203202
68	0xbe3ed236	-0.18634877
69	0x3e38496b	0.17996757
70	0xbe16ac59	-0.14714183
71	0xbec8bba8	-0.3920567
72	0x3f0f10be	0.5588492
73	0x3eba796b	0.3642076
74	0x3da0735a	0.078345016
75	0x3d949e8d	0.07256804
76	0xbebda895	-0.3704268
77	0x3e2bf70f	0.16793464
78	0xbe8eec18	-0.279145
79	0xbecf653a	-0.40506917
80	0xbed3b948	-0.41352296
81	0x3e3a0d15	0.18169053
82	0xbe691239	-0.22760858
83	0x3f20c68b	0.6280295
84	0xbd9e6142	-0.07733394
85	0x3da318ac	0.0796369
86	0xbf07f331	-0.53105456
87	0x3f12cd23	0.57344264
88	0x3de441ae	0.1114534
89	0xbd248300	-0.040163994
90	0xbeae64ea	-0.34061366
91	0x3f00a519	0.5025192
92	0xbe35a6f0	-0.17739463
93	0xbd6c32dc	-0.05766569
94	0xbebea7e4	-0.37237465
95	0xbe80b66b	-0.25139174
96	0x3cc29d3f	0.023756621
97	0xbd0d3478	-0.034473866
98	0xbf15a885	-0.58460265
99	0xbd3d805e	-0.046265
100	0xbcfe355d	-0.031031305
101	0x3ec54373	0.38528022
102	0xbe10323e	-0.14081666
103	0xbe9fb3fb	-0.31192002
104	0x3e8942c7	0.2680876
105	0x3b49e599	0.0030807017
106	0xbe017d75	-0.12645514
107	0xbe58fc6c	-0.21190041
108	0x3ee27d56	0.4423625
109	0x3e8ec7e7	0.27886888
110	0xbe765fa8	-0.24059927
111	0x3e334a2d	0.17508765
112	0x3f66c7cd	0.9014862
113	0xbf5d7adf	-0.8651561
114	0x3db73d30	0.089472175
115	0xbeb36239	-0.35035875
116	0x3e6b5c2a	0.22984377
117	0x3f0afe6b	0.5429446
118	0x3f090786	0.53527105
119	0xbc87b8b2	-0.016567562
120	0xbdebc346	-0.11511855
121	0x3de3a83a	0.11116071
122	0xbe13e372	-0.14442232
123	0xbd797d7f	-0.060910698
124	0x3ebdaff8	0.37048316
125	0x3efa586e	0.48895591
126	0xbd18f14d	-0.037339497
127	0x3df9f143	0.1220422
128	0x3dcdb8e5	0.100450315
129	0x3e9a1e2d	0.30101147
130	0xbee7e5f7	-0.45292637
131	0xbf25de33	-0.64792174
132	0xbc45f8f8	-0.012083285
133	0x3e385cbc	0.18004125
134	0x3ef36464	0.4753753
135	0x3eb9f405	0.36318985
136	0x3e80f1b9	0.2518442
137	0x3c7eac27	0.015543974
138	0x3f28a571	0.65877444
139	0xbecceb04	-0.40023053
140	0x3de82faa	0.11337216
141	0x3edfcd13	0.43711147
142	0x3dea068e	0.114270315
143	0xbe421c83	-0.18956189
144	0xbdc6eb69	-0.0971287
145	0x3ea8b00a	0.32946807
146	0xbd6f04e3	-0.05835427
147	0x3f32b78a	0.6981131
148	0x3f0fc679	0.5616222
149	0x3e3dae7d	0.18523593
150	0xbe319ecc	-0.17345732
151	0xbef2aa9d	-0.47395793
152	0x3ea62a2c	0.3245405
153	0xbf30ab7d	-0.6901167
154	0xbe88aae3	-0.26692876
155	0xbe32b6e6	-0.17452583
156	0xbebc455a	-0.3677166
157	0x3e952c5f	0.29135415
158	0x3e8c68c0	0.27423668
159	0xbe1e0d31	-0.1543472
160	0x3e711467	0.23542939
161	0x3efaa203	0.4895173
162	0xbe8b4a62	-0.27205187
163	0xbe6f3554	-0.23360187
164	0xbe8b049f	-0.27151963
165	0xbdeceab5	-0.11568204
166	0xbedaa392	-0.4270292
167	0xbee39bd8	-0.44454837
168	0xbe186feb	-0.14886443
169	0x3e6a1a86	0.2286168
170	0xbe12ef9e	-0.14349219
171	0xbe93d362	-0.2887221
172	0x3c677a12	0.014128225
173	0xbcee03c8	-0.029054537
174	0xbea1edd7	-0.3162677
175	0xbea49264	-0.32142937
176	0x3e0ada7d	0.13559909
177	0xbebb08a7	-0.3653004
178	0x3e035490	0.12825227
179	0x3d116865	0.03549995
180	0xbe8ce5c5	-0.2751905
181	0x3d3f807f	0.046753403
182	0x3e3ceb48	0.18449128
183	0x3e94e913	0.29084072
184	0x3d807cdf	0.06273817
185	0xbdfa130f	-0.122106664
186	0x3e0897ad	0.1333911
187	0x3ee279e0	0.44233608
188	0x3d05560e	0.03255277
189	0x3ecf2f27	0.40465662
190	0x3dd0f80d	0.10203562
191	0xbe400465	-0.18751676
192	0x3e534f49	0.20635714
193	0x3eab86f1	0.3350139
194	0xbf0bcc77	-0.54608864
195	0xbebd53b3	-0.3697792
196	0x3e5425aa	0.20717493
197	0xbd2bac2b	-0.04191224
198	0xbe903d31	-0.28171685
199	0x3f455dce	0.7709626
200	0xbf2cd136	-0.6750673
201	0xbe9c647f	-0.30545422
202	0x3e5693f5	0.20954879
203	0xbc640909	-0.01391817
204	0xbe915080	-0.2838173
205	0x3e0b3b4e	0.13596842
206	0xbdb96263	-0.09051969
207	0x3e4e009f	0.20117424
208	0xbecd4243	-0.40089616
209	0xbf34e26c	-0.7065799
210	0xbf4c53b9	-0.7981525
211	0x3e5776ef	0.21041463
212	0xbc62aef4	-0.013835657
213	0xbe12549e	-0.14290091
214	0x3d7ffbef	0.062496122
215	0x3eeb98ff	0.46015164
216	0x3f16183a	0.58630717
217	0xbec13b25	-0.37740436
218	0x3ebe556e	0.37174553
219	0x3e430a40	0.19046879
220	0xbe93a9e7	-0.28840563
221	0x3c0d4e42	0.008624615
222	0xbe0217a2	-0.12704328
223	0x3ea7f609	0.32804897
224	0x3e49a85c	0.1969313
225	0xbf3923cf	-0.72320265
226	0x3e280746	0.16409025
227	0xbcca1146	-0.02466644
228	0xbf166f75	-0.5876382
229	0x3e291892	0.16513279
230	0xbcb557a5	-0.022136519
231	0xbe1de647	-0.15419875
232	0x3e1746b2	0.14773062
233	0x3dc5602e	0.096374854
234	0x3dedab0e	0.11604892
235	0xbf09febb	-0.5390431
236	0x3dcfb884	0.101426154
237	0x3d0792e6	0.033099078
238	0xbe2686b9	-0.1626233
239	0xbde35951	-0.1110102
240	0x3f3dc926	0.74135053
241	0xbe9edbd0	-0.3102708
242	0x3ea307d2	0.31841904
243	0xbdc0a560	-0.09406543
244	0xbe931786	-0.28728884
245	0xbe30e3f2	-0.17274454
246	0xbcc7018e	-0.024292734
247	0xbe3e0b0e	-0.18558905
248	0xbdff1ade	-0.124562964
249	0xbc643281	-0.013928057
250	0xbe7424eb	-0.23842208
251	0x3e08b676	0.13350853
252	0xbdd43718	-0.10362071
253	0xbeb8b42c	-0.3607496
254	0x3e554804	0.20828253
255	0xbe332f70	-0.17498565

mlp_extractor.value_net.2.bias f4 [64]
0	0xbd7ba501	-0.061436657
1	0xbd3b9398	-0.045795053
2	0xbdd903d3	-0.105964325
3	0xbc70d020	-0.014698058
4	0x3cd37afd	0.025815481
5	0x3dab5799	0.08366317
6	0x3ded2c64	0.115807325
7	0xbcb25624	-0.02176959
8	0x3dca4126	0.09875707
9	0xbcc5bbc1	-0.02413738
10	0xbe17c3d0	-0.1482079
11	0x3ba27732	0.004958057
12	0xbe0abe3a	-0.13549128
13	0x3d72ec23	0.05930723
14	0xbb619ea6	-0.0034426837
15	0x3db7cb4a	0.08974321
16	0xb9482d0c	-0.00019090268
17	0xbd38eb9f	-0.04514658
18	0xbe0a5b0f	-0.13511299
19	0x3bab037d	0.0052189217
20	0xbd92fd19	-0.07177181
21	0xbd495b71	-0.04915947
22	0x3de2c828	0.11073333
23	0x3bb66c46	0.0055671064
24	0x3d3422b6	0.043978415
25	0x3c70f17b	0.014706011
26	0x3c06e223	0.008232626
27	0xbdc5f4af	-0.0966581
28	0xbd6d3a3c	-0.057916865
29	0xbe0f0981	-0.13968469
30	0x3c05416e	0.008133275
31	0xbc8fb527	-0.017542435
32	0x3c98aec9	0.018638032
33	0x3d69406b	0.0569462
34	0xbdecdbd3	-0.11565366
35	0x3d82c484	0.06385139
36	0x3d7dbb0c	0.06194596
37	0x3c70e02e	0.014701886
38	0xbe025739	-0.12728585
39	0xbd6ead5c	-0.058270797
40	0xbdf38de2	-0.118922964
41	0x3e0ab756	0.135465
42	0xbdd22a05	-0.10261921
43	0xbba9657a	-0.0051695677
44	0x3c8082e4	0.015687414
45	0x3e7cd4f2	0.24690607
46	0x3e332334	0.17493898
47	0x3e17b48b	0.14814965
48	0x3d88ecc1	0.06685782
49	0xbd817f35	-0.06323091
50	0x3d58d9e8	0.052942187
51	0xbe210653	-0.15725069
52	0xbb3704ad	-0.002792637
53	0x3cda4be4	0.026647516
54	0xbc3a094f	-0.011354758
55	0xbd3635a5	-0.044484753
56	0x3ddee499	0.10883445
57	0x3d562330	0.05227965
58	0x3dcfacbd	0.10140369
59	0x3d479ac9	0.0487316
60	0x3dde727b	0.10861679
61	0x3c1754f9	0.009236568
62	0x3db75718	0.08952159
63	0x3e128bb7	0.1431111

action_net.weight f4 [16, 64]
0	0x3df1aa3e	0.11800049
1	0x3e9d09e1	0.306716
2	0x3d9fc82c	0.07801852
3	0x3e97216c	0.29517686
4	0xbeab8712	-0.33501488
5	0xbee5303b	-0.4476336
6	0xbf650dfa	-0.8947445
7	0x3eb9410a	0.36182433
8	0xbe988b93	-0.29793987
9	0xbfa1b3c8	-1.263299
10	0xbed6fc8c	-0.41989553
11	0xbebcf6a3	-0.3690692
12	0xbe09e979	-0.13467969
13	0xbe535016	-0.20636019
14	0xbf308355	-0.68950397
15	0x3d82ddcb	0.0638996
16	0xbda8d620	-0.08243966
17	0xbf62298a	-0.88344634
18	0x3d8ed479	0.0697412
19	0xbee4a2f9	-0.44655588
20	0x3e84cc28	0.2593701
21	0x3d73a596	0.059484087
22	0x3f0c6343	0.5483896
23	0x3d22990e	0.039696746
24	0x3d1a6b42	0.037699945
25	0xbdd8242c	-0.10553774
26	0x3ec912c0	0.39272118
27	0xbf318787	-0.69347423
28	0x3f2f7d6c	0.68550754
29	0xbebddfdc	-0.37084854
30	0xbcd79134	-0.026314355
31	0x3efa4b04	0.48885357
32	0xbca8717d	-0.020561928
33	0xbdfff481	-0.12497807
34	0xbe048895	-0.12942727
35	0x3d61d39e	0.055133455
36	0x3f3632ba	0.7117115
37	0xbe088aa1	-0.13334133
38	0x3e00f964	0.12595135
39	0xbe9da0c7	-0.30786726
40	0x3d2743c1	0.0408361
41	0xbe16b0e0	-0.1471591
42	0x3df0490a	0.11732681
43	0xbf06381c	-0.52429366
44	0x3f1b933f	0.60771555
45	0x3f40a53c	0.7525213
46	0xbf048872	-0.517707
47	0x3ec19e6a	0.37816173
48	0x3f0b23c7	0.54351467
49	0x3dd9c6c6	0.10633616
50	0x3f872306	1.0557563
51	0xbea00c49	-0.31259373
52	0xbe2c5ef3	-0.16833095
53	0x3f5fc72d	0.87413293
54	0x3eb3ba64	0.35103142
55	0x3c0fe511	0.008782641
56	0x3dc48a56	0.09596698
57	0xbe51f065	-0.2050186
58	0xbfd6113a	-1.6724007
59	0x3f2e2de1	0.68038756
60	0xbf1bbe11	-0.60836893
61	0xbdd8143b	-0.10550734
62	0x3f0fe0d7	0.56202453
63	0xbeb2dd62	-0.34934527
64	0x3f0b1d8b	0.54341954
65	0xbf3846ae	-0.7198285
66	0xbf14f5e2	-0.5818769
67	0x3f205f03	0.62644976
68	0xbebc8b83	-0.3682519
69	0x3e67d17a	0.22638503
70	0x3eca441e	0.39505094
71	0x3c31a783	0.010843161
72	0xbf43aecb	-0.7643859
73	0x3e2d1fe6	0.169067
74	0xbe37ef33	-0.17962341
75	0x3f0b4a9e	0.5441073
76	0xbe4f3d37	-0.20238195
77	0xbecf334a	-0.40468818
78	0x3f95096a	1.1643498
79	0x3cb55c53	0.02213875
80	0x3dadee53	0.08492722
81	0xbf229dff	-0.6352233
82	0xbf085442	-0.5325357
83	0x3d3893ea	0.045062937
84	0xbdcea401	-0.10089875
85	0xbf37fdea	-0.7187182
86	0x3f29a2bb	0.6626393
87	0x3f106f0b	0.5641944
88	0xbe272c8e	-0.1632559
89	0x3ecb6247	0.39723417
90	0xbe4965a9	-0.19667687
91	0x3f1df396	0.6169981
92	0x3d788206	0.060670875
93	0x3e4c4f38	0.19952095
94	0xbf16fdd1	-0.58981043
95	0x3f000519	0.5000778
96	0x3e8390a0	0.25696278
97	0xbea9e3ee	-0.3318171
98	0x3d2927b0	0.041297615
99	0x3ea24944	0.31696522
100	0xbefd60ca	-0.49487907
101	0x3e258378	0.16163433
102	0xbeda5e85	-0.42650238
103	0xbf13e45f	-0.5777034
104	0x3f03dfcb	0.51513356
105	0xbe69976c	-0.22811669
106	0x3e09a013	0.1343997
107	0x3f5ab623	0.8543417
108	0xbe6347b4	-0.22195321
109	0x3ed3442a	0.41262943
110	0xbd700fcc	-0.058608815
111	0x3e0a441f	0.13502549
112	0x3e3e5dc6	0.18590459
113	0x3d829f24	0.0637801
114	0x3dfe6135	0.124208845
115	0xbe1719b0	-0.14755893
116	0xbe80ed26	-0.2518093
117	0x3e063724	0.13106972
118	0xbe774160	-0.24146032
119	0xbf7b1538	-0.9807925
120	0xbe66dac0	-0.22544384
121	0x3e5294be	0.20564553
122	0x3f2c67fe	0.6734618
123	0xbd77650b	-0.060399096
124	0xbef8734e	-0.4852547
125	0x3f7c6bcd	0.9860199
126	0x3eda4c9e	0.4263658
127	0xbdd55f31	-0.10418547
128	0xbeb7b732	-0.35881954
129	0x3f1be935	0.6090272
130	0xbe216767	-0.15762101
131	0xbda36a21	-0.07979227
132	0x3e9ad67e	0.3024177
133	0xbda62243	-0.08112004
134	0xbeb28d95	-0.34873644
135	0x3e84096e	0.25788444
136	0x3ecf622a	0.4050458
137	0x3f583a92	0.8446437
138	0xbf0ee152	-0.5581256
139	0xbe84efda	-0.25964242
140	0x3d3148a6	0.043282174
141	0x3e288986	0.16458711
142	0xbddf3191	-0.10898126
143	0xbe1a746b	-0.15083472
144	0xbd546240	-0.05185151
145	0x3f029a37	0.51016563
146	0xbc99e77e	-0.018787142
147	0xbed466e8	-0.4148476
148	0xbe0c0149	-0.13672365
149	0x3d949426	0.072548196
150	0xbf0c92bd	-0.54911405
151	0xbc919fe3	-0.017776435
152	0xbd0ff54e	-0.03514605
153	0x3e337d28	0.17528212
154	0xbdc4475c	-0.09583923
155	0x3e994f0f	0.2994313
156	0x3ec1eb5e	0.37874883
157	0xbec09173	-0.3761097
158	0xbee81d36	-0.45334786
159	0xbf8f933a	-1.1216805
160	0xbfb29a7b	-1.3953394
161	0xbf46d40e	-0.7766732
162	0xbd4b7aad	-0.04967754
163	0x3de38a53	0.111103676
164	0x3cbc4226	0.02298076
165	0xbf37ad87	-0.71749157
166	0x3d61ef84	0.05516006
167	0xbee58fc4	-0.44836247
168	0xbe97fa9b	-0.29683384
169	0xbe866305	-0.2624742
170	0xbed95b47	-0.42452452
171	0xbee63129	-0.4495938
172	0x3cfa2096	0.030533116
173	0xbf670fa4	-0.9025824
174	0x3f11d388	0.56963396
175	0x3e155c58	0.14586008
176	0xbf6cdd39	-0.9252506
177	0x3f00df27	0.50340503
178	0xbede4c3b	-0.43417534
179	0x3e2282cf	0.15870212
180	0x3f368de4	0.7131026
181	0xbf3b7f00	-0.7324066
182	0xbece824d	-0.40333787
183	0xbdaa87dc	-0.08326694
184	0x3dc150c1	0.09439231
185	0xbe882cf5	-0.265968
186	0x3dfc3b24	0.12315968
187	0xbe02af8f	-0.12762283
188	0xbc3e84d4	-0.011628348
189	0xbe8153ce	-0.2525925
190	0xbfe50523	-1.7892193
191	0xbd30df01	-0.043181423
192	0xbcaa31d1	-0.020775707
193	0xbd1ddf16	-0.03854283
194	0x3f228295	0.634805
195	0xbddaaf34	-0.106779486
196	0x3e30322f	0.17206644
197	0x3e137d40	0.14403248
198	0x3f3f63db	0.7476174
199	0x3e90bd71	0.28269532
200	0x3d845c2b	0.06462892
201	0xbebfb66d	-0.37443867
202	0x3e1350a0	0.14386225
203	0xbebf217c	-0.37330234
204	0x3f02de54	0.51120496
205	0x3f71eaeb	0.9449908
206	0xbdb4047a	-0.08789916
207	0xbdb5a252	-0.08868851
208	0x3eaddece	0.3395905
209	0x3eddbb1a	0.4330681
210	0x3f3e1646	0.74252737
211	0x3f558387	0.8340382
212	0x3e6d3abf	0.23166941
213	0xbd935eb8	-0.071958005
214	0xbee7ef4f	-0.45299765
215	0xbf7b82a5	-0.9824622
216	0x3e077fcc	0.13232344
217	0x3e9ba32a	0.30397922
218	0xbec0c57e	-0.37650675
219	0xbe274209	-0.16333784
220	0xbf45054e	-0.7696122
221	0x3ce56961	0.02800435
222	0x3f5926c3	0.8482477
223	0x3da00b22	0.078146234
224	0x3f37aa7e	0.71744525
225	0x3f93e39e	1.1553838
226	0x3eb0c416	0.34524602
227	0xbf341f44	-0.7036021
228	0x3e235275	0.15949424
229	0x3ea9ada0	0.33140278
230	0xbed47732	-0.4149719
231	0x3e72f611	0.2372668
232	0xbed96abe	-0.4246425
233	0x3e069dd4	0.13146144
234	0x3f08e83c	0.5347936
235	0xbe08b4ba	-0.13350192
236	0xbf980d24	-1.187901
237	0xbe2c0f8e	-0.16802809
238	0xbdf5cf96	-0.120024845
239	0xbf61f7cb	-0.8826873
240	0xbec35d44	-0.38157094
241	0xbedfd32d	-0.43715802
242	0xbeb3141d	-0.34976283
243	0x3f1b70c6	0.60718954
244	0x3e553ca9	0.20823921
245	0xbeec3b50	-0.46139002
246	0x3eeb25bf	0.45927235
247	0x3f7939cf	0.97353834
248	0xbec75058	-0.38928485
249	0x3f50f02f	0.8161649
250	0x3e814b84	0.25252926
251	0xbe13ee05	-0.14446266
252	0x3f071d94	0.5277951
253	0xbe626cdc	-0.22111839
254	0x3e87788a	0.26459152
255	0x3e248621	0.16066791

action_net.bias f4 [16]
0	0x3ed024d0	0.40653086
1	0xbd54bc07	-0.05193713
2	0x3ebe1538	0.37125564
3	0xbe4e2bb1	-0.20133854
4	0xbf25d35c	-0.64775634
5	0x3577c97b	9.2307863e-07
6	0xbe814a7b	-0.25252137
7	0xbe871a6f	-0.26387355
8	0xbe2b04ad	-0.16701002
9	0x3e3715ce	0.17879412
10	0x3d36cf0f	0.04463106
11	0xbcaee883	-0.021351105
12	0x3e207094	0.15667945
13	0x3ec015da	0.3751667
14	0xbe0292ff	-0.12751387
15	0x34c2643e	3.6208252e-07

value_net.weight f4 [1, 64]
0	0xbf27236f	-0.6528844
1	0xbf12e307	-0.57377666
2	0x3f006628	0.5015588
3	0xbea71ed6	-0.32640713
4	0xbeac8bd5	-0.33700433
5	0xbf2d0f37	-0.6760134
6	0x3f242e1b	0.6413285
7	0xbf150a96	-0.5821928
8	0xbebfc4c6	-0.37454814
9	0x3f243daf	0.6415662
10	0xbe878e9a	-0.26475984
11	0x3eedfde2	0.4648276
12	0x3ee12783	0.43975458
13	0xbef2a268	-0.4738953
14	0xbf09ec3e	-0.538761
15	0xbed180bc	-0.4091853
16	0xbec1935e	-0.37807745
17	0x3ed58631	0.41703942
18	0x3ec9a5bf	0.39384267
19	0x3ea70290	0.32619143
20	0xbecd2de8	-0.40074086
21	0xbe91c2bc	-0.28468883
22	0xbf1ddb53	-0.6166279
23	0x3e86b7ca	0.26312095
24	0xbf08a9d6	-0.5338415
25	0xbeecdc0c	-0.46261632
26	0xbecff07c	-0.40613163
27	0xbefde4f6	-0.49588746
28	0xbf2738db	-0.6532113
29	0x3eeb3bf4	0.45944178
30	0x3f5ad22f	0.85476965
31	0xbeec9dbc	-0.46214092
32	0x3f19e582	0.60115826
33	0xbe856241	-0.26051524
34	0xbee862f5	-0.45387998
35	0xbe98bd70	-0.2983203
36	0xbed26f16	-0.41100377
37	0xbeb84145	-0.35987297
38	0xbeb38d56	-0.35068768
39	0x3ec3be2a	0.3823102
40	0xbe827be4	-0.25485146
41	0x3f0cfab5	0.5507005
42	0xbf19e8b5	-0.6012071
43	0x3ed3e268	0.41383672
44	0xbf1cba95	-0.612222
45	0xbeece01e	-0.46264738
46	0x3edfccb8	0.43710876
47	0xbefb7af0	-0.4911723
48	0x3f154d2d	0.58320886
49	0xbf20b21e	-0.62771785
50	0x3ea31346	0.31850642
51	0x3f106b7d	0.56414014
52	0xbef5fb6d	-0.48043385
53	0xbeafd19e	-0.34339613
54	0xbe7763dc	-0.24159187
55	0x3f1ed5e5	0.6204513
56	0xbf32f588	-0.699059
57	0xbf00aca7	-0.50263447
58	0xbe6cbe4d	-0.23119469
59	0x3e640182	0.222662
60	0x3efc977a	0.49334317
61	0x3e9fee9e	0.31236738
62	0xbeb0af32	-0.34508663
63	0xbebc511c	-0.36780632
